examples/person_detection/model.tflite (tflite, 325424 bytes, 28 tensors)

mobilenet_0.25_96/conv1/Conv2D/ReadVariableOp/resource i1 [1, 3, 3, 8]
00000000: e875 0d9d e831 3a50 b257 1251 e84c d035
00000010: 165c c07f 0abd 812f 15e2 afd6 08ff fbfe
00000020: 037f 1cdd d73f dcce 19bc 811d 0719 f7b8
00000030: 24c4 fe05 811e 1e1e 7f30 f955 a37f ff76
00000040: fc01 f260 9d32 b77f
-24 117 13 -99 -24 49 58 80
-78 87 18 81 -24 76 -48 53
22 92 -64 127 10 -67 -127 47
21 -30 -81 -42 8 -1 -5 -2
3 127 28 -35 -41 63 -36 -50
25 -68 -127 29 7 25 -9 -72
36 -60 -2 5 -127 30 30 30
127 48 -7 85 -93 127 -1 118
-4 1 -14 96 -99 50 -73 127

mobilenet_0.25_96/conv_dw_1/depthwise/ReadVariableOp/resource i1 [1, 3, 3, 8]
00000000: 62dd d137 40b8 0d1c 7bb2 7896 6f94 0c18
00000010: a5c9 b72c 7faa 7f7f 4284 28fc 20fb c8d2
00000020: e40e ce81 c781 2c5e 55dd 3d6b f827 70d9
00000030: a5d7 20c2 6e4f 6c76 5e0e 7fe4 b3b0 bfcb
00000040: 7f81 6df8 72ca c24e
98 -35 -47 55 64 -72 13 28
123 -78 120 -106 111 -108 12 24
-91 -55 -73 44 127 -86 127 127
66 -124 40 -4 32 -5 -56 -46
-28 14 -50 -127 -57 -127 44 94
85 -35 61 107 -8 39 112 -39
-91 -41 32 -62 110 79 108 118
94 14 127 -28 -77 -80 -65 -53
127 -127 109 -8 114 -54 -62 78

mobilenet_0.25_96/conv_dw_10/depthwise/ReadVariableOp/resource i1 [1, 3, 3, 128]
00000000: 81e9 e8ce 1b81 1fd0 7f0e 8116 9f3a 294d
00000010: 8181 c838 a326 f2cc b8e6 00ce e2cd ddd7
00000020: 63c3 0d19 b830 34c3 f316 aaec 0cb6 5dec
00000030: 11f1 21ac 8794 25f5 1b03 0623 bfac b47c
00000040: e22b 29eb 27e4 5497 71d9 359c 3e7f e946
00000050: 0315 20d1 1a81 42ef 67de 0bca 8199 7f0b
00000060: deed c5e8 811f fba2 326e 0df1 01e8 7f35
00000070: c7fc c2c1 cbee 1dde dff0 cd4e e405 f27f
00000080: df88 d2b2 9fd8 00ec aa47 efa5 baf8 16c3
00000090: ee98 c0f2 d881 f654 bb50 21b8 33e8 50e6
000000a0: dbf6 7f7f 9e08 5411 6886 97cb e281 7f07
000000b0: dd7f 51c3 7681 e313 5722 e251 c247 d854
000000c0: cd3f ca1f d197 cfab f0de 0baa 7f76 d2da
000000d0: 4581 a1b3 7fe7 49f2 19f5 2cf5 a7e8 bc81
000000e0: b0e5 117d de7f 136c 81f9 fb6a 7fdd 2766
000000f0: c736 40bf eedf e5d8 ecec 8c25 dabc 81f3
-127 -23 -24 -50 27 -127 31 -48
127 14 -127 22 -97 58 41 77
-127 -127 -56 56 -93 38 -14 -52
-72 -26 0 -50 -30 -51 -35 -41
99 -61 13 25 -72 48 52 -61
-13 22 -86 -20 12 -74 93 -20
17 -15 33 -84 -121 -108 37 -11
27 3 6 35 -65 -84 -76 124
-30 43 41 -21 39 -28 84 -105
113 -39 53 -100 62 127 -23 70
3 21 32 -47 26 -127 66 -17
103 -34 11 -54 -127 -103 127 11
-34 -19 -59 -24 -127 31 -5 -94
50 110 13 -15 1 -24 127 53
-57 -4 -62 -63 -53 -18 29 -34
-33 -16 -51 78 -28 5 -14 127
-33 -120 -46 -78 -97 -40 0 -20
-86 71 -17 -91 -70 -8 22 -61
-18 -104 -64 -14 -40 -127 -10 84
-69 80 33 -72 51 -24 80 -26
-37 -10 127 127 -98 8 84 17
104 -122 -105 -53 -30 -127 127 7
-35 127 81 -61 118 -127 -29 19
87 34 -30 81 -62 71 -40 84
-51 63 -54 31 -47 -105 -49 -85
-16 -34 11 -86 127 118 -46 -38
69 -127 -95 -77 127 -25 73 -14
25 -11 44 -11 -89 -24 -68 -127
-80 -27 17 125 -34 127 19 108
-127 -7 -5 106 127 -35 39 102
-57 54 64 -65 -18 -33 -27 -40
-20 -20 -116 37 -38 -68 -127 -13

mobilenet_0.25_96/conv_dw_11/depthwise/ReadVariableOp/resource i1 [1, 3, 3, 128]
00000000: 69e1 e5fe eb4f 7ffc 1445 a813 42e5 c9e2
00000010: 6cef 3aef 6bd0 39c3 27d7 65eb 52f0 7cda
00000020: e4f6 8115 a1fd df3c 0b4e d4ad 1e1c f7e8
00000030: 13c7 93ec 1cb9 e714 797f e4d1 a7dd c27f
00000040: a251 3b15 e734 a631 4422 d34e e9e3 e55d
00000050: 121f 50f4 fa21 bda1 0444 7984 02d8 c65a
00000060: 22d5 0227 9feb 23f8 c90e 8118 81b7 de15
00000070: dd7f cf71 120f 5bc3 7f53 110e e9bd 2e04
00000080: 0f24 8df9 5557 5a07 a0b6 f1b4 3d22 e2a8
00000090: 5408 0181 0981 3ca9 f9b8 3212 49f2 7f52
000000a0: 16dd ebc0 90b8 d535 f21d fc7a 3afe 81db
000000b0: 9aff db50 13fe ad57 7f3c f336 15ed c2cf
000000c0: b0f0 2dac ad4b 8641 becc 297f afa7 f082
000000d0: fa37 d3ff 03fa a031 380d 7fdc 5515 a52d
000000e0: d095 d52d c7b8 101d 007f 11f0 f0e9 db25
000000f0: 1636 f823 e511 dbe1 17ed ff54 6ce6 2981
105 -31 -27 -2 -21 79 127 -4
20 69 -88 19 66 -27 -55 -30
108 -17 58 -17 107 -48 57 -61
39 -41 101 -21 82 -16 124 -38
-28 -10 -127 21 -95 -3 -33 60
11 78 -44 -83 30 28 -9 -24
19 -57 -109 -20 28 -71 -25 20
121 127 -28 -47 -89 -35 -62 127
-94 81 59 21 -25 52 -90 49
68 34 -45 78 -23 -29 -27 93
18 31 80 -12 -6 33 -67 -95
4 68 121 -124 2 -40 -58 90
34 -43 2 39 -97 -21 35 -8
-55 14 -127 24 -127 -73 -34 21
-35 127 -49 113 18 15 91 -61
127 83 17 14 -23 -67 46 4
15 36 -115 -7 85 87 90 7
-96 -74 -15 -76 61 34 -30 -88
84 8 1 -127 9 -127 60 -87
-7 -72 50 18 73 -14 127 82
22 -35 -21 -64 -112 -72 -43 53
-14 29 -4 122 58 -2 -127 -37
-102 -1 -37 80 19 -2 -83 87
127 60 -13 54 21 -19 -62 -49
-80 -16 45 -84 -83 75 -122 65
-66 -52 41 127 -81 -89 -16 -126
-6 55 -45 -1 3 -6 -96 49
56 13 127 -36 85 21 -91 45
-48 -107 -43 45 -57 -72 16 29
0 127 17 -16 -16 -23 -37 37
22 54 -8 35 -27 17 -37 -31
23 -19 -1 84 108 -26 41 -127

mobilenet_0.25_96/conv_dw_12/depthwise/ReadVariableOp/resource i1 [1, 3, 3, 128]
00000000: 9738 f431 f70d 1bf0 942c b68d 191f 24a8
00000010: fd0f e209 3c7f cd11 3183 d6e6 6aac e1fa
00000020: 3b7b 7f19 feae 6838 e481 e80d 8895 81db
00000030: fd08 8493 f3e6 0bda 2fb5 174c 3bfd be7f
00000040: e9b2 efe7 acbb 2cb4 1c2d 817f 1dda 7f2e
00000050: dea7 55e0 e7e6 96a5 091d 4c24 98a5 bde2
00000060: f1ec 345f 1bc7 167f ede4 c5ff 22f0 3db5
00000070: f322 ebf2 f8b6 e31f bc1d 2d9f 2bf1 bc1a
00000080: 161d 22d1 9401 0891 d84a 05e4 40f8 cbcc
00000090: 3009 f028 5e0b 8107 fa22 b781 810d 0468
000000a0: 662f 487f 7fd9 12ce 81ce e407 b6ea e6f2
000000b0: 0981 82d3 5407 8b03 cfcb e5f7 c4f2 7f07
000000c0: 811f 81f6 8581 33d2 812f 00e7 0605 24e5
000000d0: f902 7fc2 1cdb cad4 7f1c 1800 7fec 26cc
000000e0: c142 17c5 0c34 ed86 0881 b619 0371 7fe6
000000f0: dd33 df32 4581 c6a7 814d b90a 654e a033
-105 56 -12 49 -9 13 27 -16
-108 44 -74 -115 25 31 36 -88
-3 15 -30 9 60 127 -51 17
49 -125 -42 -26 106 -84 -31 -6
59 123 127 25 -2 -82 104 56
-28 -127 -24 13 -120 -107 -127 -37
-3 8 -124 -109 -13 -26 11 -38
47 -75 23 76 59 -3 -66 127
-23 -78 -17 -25 -84 -69 44 -76
28 45 -127 127 29 -38 127 46
-34 -89 85 -32 -25 -26 -106 -91
9 29 76 36 -104 -91 -67 -30
-15 -20 52 95 27 -57 22 127
-19 -28 -59 -1 34 -16 61 -75
-13 34 -21 -14 -8 -74 -29 31
-68 29 45 -97 43 -15 -68 26
22 29 34 -47 -108 1 8 -111
-40 74 5 -28 64 -8 -53 -52
48 9 -16 40 94 11 -127 7
-6 34 -73 -127 -127 13 4 104
102 47 72 127 127 -39 18 -50
-127 -50 -28 7 -74 -22 -26 -14
9 -127 -126 -45 84 7 -117 3
-49 -53 -27 -9 -60 -14 127 7
-127 31 -127 -10 -123 -127 51 -46
-127 47 0 -25 6 5 36 -27
-7 2 127 -62 28 -37 -54 -44
127 28 24 0 127 -20 38 -52
-63 66 23 -59 12 52 -19 -122
8 -127 -74 25 3 113 127 -26
-35 51 -33 50 69 -127 -58 -89
-127 77 -71 10 101 78 -96 51

mobilenet_0.25_96/conv_dw_13/depthwise/ReadVariableOp/resource i1 [1, 3, 3, 256]
00000000: 76a8 c4f6 e1db 14d3 5bec 0b34 ddc0 f593
00000010: ed0a 39f0 7f11 e27f ad0a 87e7 0b81 7f42
00000020: cd0d 1366 1e9e 61fb 81d9 05c1 ca3c fe62
00000030: 1d05 b8f9 f56e eb9b 9df5 f4ee aa7a 25ef
00000040: 0da6 1835 1281 832d e4e7 7fad 52ec 1623
00000050: 81ce ff26 c28d e8d7 1d1a ddf7 f4f1 b4e6
00000060: 2de7 1c56 e4d5 5ee9 df1f f8ab b596 a346
00000070: dfac 9081 0ce3 c2f6 e83d fb62 df02 bf11
00000080: d2df d181 aa8e 3f47 fb81 b609 f2a1 a194
00000090: aa98 ddd7 53fe 5cfe 82cd d57f efb8 2aea
000000a0: 26ae f903 bf42 067f 33c0 f2b6 0902 c208
000000b0: 04c7 edb8 d8e5 ef81 81f1 3b81 7dc2 09e5
000000c0: 964e edeb ec14 12c1 ff8a 7f94 d934 2001
000000d0: f81e 03d7 fcaf 7f16 3115 87e6 a5e2 61d3
000000e0: df96 1ad9 f74c 892b fbf0 cef6 a1d5 d9b5
000000f0: 7ff6 d8f6 c77f e310 c50b f73a 7fbb 81ff
118 -88 -60 -10 -31 -37 20 -45
91 -20 11 52 -35 -64 -11 -109
-19 10 57 -16 127 17 -30 127
-83 10 -121 -25 11 -127 127 66
-51 13 19 102 30 -98 97 -5
-127 -39 5 -63 -54 60 -2 98
29 5 -72 -7 -11 110 -21 -101
-99 -11 -12 -18 -86 122 37 -17
13 -90 24 53 18 -127 -125 45
-28 -25 127 -83 82 -20 22 35
-127 -50 -1 38 -62 -115 -24 -41
29 26 -35 -9 -12 -15 -76 -26
45 -25 28 86 -28 -43 94 -23
-33 31 -8 -85 -75 -106 -93 70
-33 -84 -112 -127 12 -29 -62 -10
-24 61 -5 98 -33 2 -65 17
-46 -33 -47 -127 -86 -114 63 71
-5 -127 -74 9 -14 -95 -95 -108
-86 -104 -35 -41 83 -2 92 -2
-126 -51 -43 127 -17 -72 42 -22
38 -82 -7 3 -65 66 6 127
51 -64 -14 -74 9 2 -62 8
4 -57 -19 -72 -40 -27 -17 -127
-127 -15 59 -127 125 -62 9 -27
-106 78 -19 -21 -20 20 18 -63
-1 -118 127 -108 -39 52 32 1
-8 30 3 -41 -4 -81 127 22
49 21 -121 -26 -91 -30 97 -45
-33 -106 26 -39 -9 76 -119 43
-5 -16 -50 -10 -95 -43 -39 -75
127 -10 -40 -10 -57 127 -29 16
-59 11 -9 58 127 -69 -127 -1

mobilenet_0.25_96/conv_dw_2/depthwise/ReadVariableOp/resource i1 [1, 3, 3, 16]
00000000: 568f 9dd7 09e6 ce57 2dbf e812 9604 5a81
00000010: 48a3 8f38 7faf f26b 1881 81fc 1bc7 013a
00000020: 8155 a537 2041 22c4 81f0 bb18 6908 82df
00000030: 3ac8 282d 097f 23d4 eae9 3154 e60c 4523
00000040: 25a4 817f 4aba fe7f 90ad f07f 7ffc 082e
00000050: 8581 aa59 3cd0 7fc0 8e27 8e41 abf6 b0b2
00000060: 2706 15d6 493c 12e4 f90e 08f4 2242 5b00
00000070: 38a1 220e 531c f0fe 4405 88ff 9481 1218
00000080: 0eb4 9cdc 0220 28cf dc06 8151 23d8 8118
86 -113 -99 -41 9 -26 -50 87
45 -65 -24 18 -106 4 90 -127
72 -93 -113 56 127 -81 -14 107
24 -127 -127 -4 27 -57 1 58
-127 85 -91 55 32 65 34 -60
-127 -16 -69 24 105 8 -126 -33
58 -56 40 45 9 127 35 -44
-22 -23 49 84 -26 12 69 35
37 -92 -127 127 74 -70 -2 127
-112 -83 -16 127 127 -4 8 46
-123 -127 -86 89 60 -48 127 -64
-114 39 -114 65 -85 -10 -80 -78
39 6 21 -42 73 60 18 -28
-7 14 8 -12 34 66 91 0
56 -95 34 14 83 28 -16 -2
68 5 -120 -1 -108 -127 18 24
14 -76 -100 -36 2 32 40 -49
-36 6 -127 81 35 -40 -127 24

mobilenet_0.25_96/conv_dw_3/depthwise/ReadVariableOp/resource i1 [1, 3, 3, 32]
00000000: 000f b20d 7f81 7ff1 8696 8f0c 3ecd 967f
00000010: 62b2 7641 d7f5 0376 7f2e 4113 f003 a254
00000020: 1ae2 2427 1513 a909 dcd1 8115 2ae3 8136
00000030: 2ff9 3a22 4427 ed7f f081 7fe3 1604 8128
00000040: e74e 7f48 f156 07f4 7f50 3881 07cf e63e
00000050: 1a24 7ff4 4a11 2a70 dcef 06bc dab4 aa73
00000060: 2acc c47f e309 d0cf dd46 ec2e 2b0e 076d
00000070: c281 e7d1 cfed c933 71fa 38e0 109b fe62
00000080: 302c 1638 5905 a681 fd7f ff49 7fd9 dcdb
00000090: a1df 0412 8f5d 7f25 d9f4 4df1 f2a5 dd0c
000000a0: bf86 4371 65df 3eea 1d2b d5ff 1390 d21e
000000b0: 810f 462a 5cea 43de 30ec 8dbd 7f21 1781
000000c0: 7f18 1f7e f238 e9ef 76c4 cc02 f77f 1454
000000d0: 2a01 f681 641b e540 c8df b7e7 38cd d229
000000e0: c695 1303 35e0 9eb8 f3a5 175c 4332 63c3
000000f0: d898 638c 8129 2927 d4c4 c450 af81 8a59
0 15 -78 13 127 -127 127 -15
-122 -106 -113 12 62 -51 -106 127
98 -78 118 65 -41 -11 3 118
127 46 65 19 -16 3 -94 84
26 -30 36 39 21 19 -87 9
-36 -47 -127 21 42 -29 -127 54
47 -7 58 34 68 39 -19 127
-16 -127 127 -29 22 4 -127 40
-25 78 127 72 -15 86 7 -12
127 80 56 -127 7 -49 -26 62
26 36 127 -12 74 17 42 112
-36 -17 6 -68 -38 -76 -86 115
42 -52 -60 127 -29 9 -48 -49
-35 70 -20 46 43 14 7 109
-62 -127 -25 -47 -49 -19 -55 51
113 -6 56 -32 16 -101 -2 98
48 44 22 56 89 5 -90 -127
-3 127 -1 73 127 -39 -36 -37
-95 -33 4 18 -113 93 127 37
-39 -12 77 -15 -14 -91 -35 12
-65 -122 67 113 101 -33 62 -22
29 43 -43 -1 19 -112 -46 30
-127 15 70 42 92 -22 67 -34
48 -20 -115 -67 127 33 23 -127
127 24 31 126 -14 56 -23 -17
118 -60 -52 2 -9 127 20 84
42 1 -10 -127 100 27 -27 64
-56 -33 -73 -25 56 -51 -46 41
-58 -107 19 3 53 -32 -98 -72
-13 -91 23 92 67 50 99 -61
-40 -104 99 -116 -127 41 41 39
-44 -60 -60 80 -81 -127 -118 89

mobilenet_0.25_96/conv_dw_4/depthwise/ReadVariableOp/resource i1 [1, 3, 3, 32]
00000000: 92fa 93ac d10a 7f2e 54bd 19ea 8181 2105
00000010: 817b 7f15 5139 e2c2 e584 8165 5c1f 5f51
00000020: fdbc e436 f64b 177f 09e7 0740 03aa 987c
00000030: b27d 4b81 c409 6c7f 7feb 050e 7f27 5a6b
00000040: a643 d373 4af1 1071 81c8 7d81 7dcb 38e2
00000050: 9bd2 36cb ea07 2629 60f3 847f 0109 ef50
00000060: ac41 d533 faee f604 2625 31a6 e6e1 7f00
00000070: fa0a baa3 2c7f 7f7f f50a b9e4 6272 0439
00000080: 4287 247f f6f9 b8f4 0ede e7c0 03c9 8950
00000090: 4166 dc29 7fee 4b49 3995 e91b 1c7f 2041
000000a0: 0003 e878 1da3 eae7 4715 7f18 fd1e f81a
000000b0: c770 183c a72e b3db 06f4 b4e8 d6e0 7f81
000000c0: 8108 8169 d04c 19f6 9576 e59d bc9d 6bf4
000000d0: 4645 2d0b 4459 471e ffc8 b433 5f36 0e22
000000e0: e281 26e1 817f 29aa ab7f cfcc b900 e37f
000000f0: 707f 06f0 7eeb 200b 610a d4e6 7bf5 b8fe
-110 -6 -109 -84 -47 10 127 46
84 -67 25 -22 -127 -127 33 5
-127 123 127 21 81 57 -30 -62
-27 -124 -127 101 92 31 95 81
-3 -68 -28 54 -10 75 23 127
9 -25 7 64 3 -86 -104 124
-78 125 75 -127 -60 9 108 127
127 -21 5 14 127 39 90 107
-90 67 -45 115 74 -15 16 113
-127 -56 125 -127 125 -53 56 -30
-101 -46 54 -53 -22 7 38 41
96 -13 -124 127 1 9 -17 80
-84 65 -43 51 -6 -18 -10 4
38 37 49 -90 -26 -31 127 0
-6 10 -70 -93 44 127 127 127
-11 10 -71 -28 98 114 4 57
66 -121 36 127 -10 -7 -72 -12
14 -34 -25 -64 3 -55 -119 80
65 102 -36 41 127 -18 75 73
57 -107 -23 27 28 127 32 65
0 3 -24 120 29 -93 -22 -25
71 21 127 24 -3 30 -8 26
-57 112 24 60 -89 46 -77 -37
6 -12 -76 -24 -42 -32 127 -127
-127 8 -127 105 -48 76 25 -10
-107 118 -27 -99 -68 -99 107 -12
70 69 45 11 68 89 71 30
-1 -56 -76 51 95 54 14 34
-30 -127 38 -31 -127 127 41 -86
-85 127 -49 -52 -71 0 -29 127
112 127 6 -16 126 -21 32 11
97 10 -44 -26 123 -11 -72 -2

mobilenet_0.25_96/conv_dw_5/depthwise/ReadVariableOp/resource i1 [1, 3, 3, 64]
00000000: f7da c981 f343 c77f c4c7 c2b0 28c5 153d
00000010: 0bf2 e9b6 20e9 aff5 3f40 f21d 3bbf 47cb
00000020: 0d81 3a10 610b 97db e0f0 39eb 1462 1c23
00000030: ecd7 fb06 b327 6781 1bf1 13f3 2018 3081
00000040: f2b1 e0dc 75fb e710 a3f8 10eb d1d9 7f2b
00000050: 1b81 db81 18f5 eb0a 813d 9e7f bfcc ee0b
00000060: 1f89 04cb 5711 c3e3 e3f1 0fb1 d2af 7f3f
00000070: 96f6 6281 a601 d211 4a81 20f6 4419 98bc
00000080: b6c9 b8c4 8115 0f54 1c01 ccc3 e5ac 41f9
00000090: 0fc9 03ae 23c6 dcb8 4381 1584 94bf 01b9
000000a0: e38f d9d3 7fca df81 d801 16d1 b081 03fa
000000b0: 2cd0 8b26 d1f9 8235 41a2 fa04 026f fab5
000000c0: e824 44dc 4ef9 dd30 8181 817f 7fd0 ff22
000000d0: 4230 0cec 7fd1 03ec 2a72 7f6e 81f7 f06d
000000e0: ec17 6921 a662 b793 0816 0b39 d813 1305
000000f0: cb23 df07 1d53 d015 d72e 1515 7f41 7fb7
-9 -38 -55 -127 -13 67 -57 127
-60 -57 -62 -80 40 -59 21 61
11 -14 -23 -74 32 -23 -81 -11
63 64 -14 29 59 -65 71 -53
13 -127 58 16 97 11 -105 -37
-32 -16 57 -21 20 98 28 35
-20 -41 -5 6 -77 39 103 -127
27 -15 19 -13 32 24 48 -127
-14 -79 -32 -36 117 -5 -25 16
-93 -8 16 -21 -47 -39 127 43
27 -127 -37 -127 24 -11 -21 10
-127 61 -98 127 -65 -52 -18 11
31 -119 4 -53 87 17 -61 -29
-29 -15 15 -79 -46 -81 127 63
-106 -10 98 -127 -90 1 -46 17
74 -127 32 -10 68 25 -104 -68
-74 -55 -72 -60 -127 21 15 84
28 1 -52 -61 -27 -84 65 -7
15 -55 3 -82 35 -58 -36 -72
67 -127 21 -124 -108 -65 1 -71
-29 -113 -39 -45 127 -54 -33 -127
-40 1 22 -47 -80 -127 3 -6
44 -48 -117 38 -47 -7 -126 53
65 -94 -6 4 2 111 -6 -75
-24 36 68 -36 78 -7 -35 48
-127 -127 -127 127 127 -48 -1 34
66 48 12 -20 127 -47 3 -20
42 114 127 110 -127 -9 -16 109
-20 23 105 33 -90 98 -73 -109
8 22 11 57 -40 19 19 5
-53 35 -33 7 29 83 -48 21
-41 46 21 21 127 65 127 -73

mobilenet_0.25_96/conv_dw_6/depthwise/ReadVariableOp/resource i1 [1, 3, 3, 64]
00000000: 8ffa f7e5 4e72 34f4 fd7f 8881 90ed 1be7
00000010: 1d2d f2f9 07fd 48d9 15a7 4ced 817f 37cb
00000020: f4f3 e91b 2262 d215 7fbd 1f3a 13e5 69b5
00000030: 4254 c71e 4419 d6ef 0241 b6df 2e5b cda8
00000040: 81db b3e1 1f3f 62f4 cb97 7fec 20ba 19c3
00000050: 00fa 7f0f 0e00 b40f d9e8 e4fa e82f 603e
00000060: f5e3 ead4 811f a620 3ce0 d88b 1af8 2190
00000070: 7f20 a501 d91a f247 32f5 f60f 81dc 99c5
00000080: f2e6 b2ec 00fc 3539 ecd5 79b2 2fe9 fdbe
00000090: 2b0b 4d96 35f6 0416 0781 49d5 cb18 7ffe
000000a0: 07d1 07da f736 eb7f 33c0 0e7f 8119 95e7
000000b0: 1b2b c581 c723 fe00 f2c4 06f2 0ec3 df81
000000c0: f22c eb7f c5ca 12e3 a9d3 c75b 019c 25a5
000000d0: c17f 9c55 7fec b414 2d20 ffc0 9b21 30cd
000000e0: fd2f b6ae 1d51 0497 dd15 dee5 e828 81bb
000000f0: ed27 aa55 4220 e381 e00f 56fa 5f61 eae3
-113 -6 -9 -27 78 114 52 -12
-3 127 -120 -127 -112 -19 27 -25
29 45 -14 -7 7 -3 72 -39
21 -89 76 -19 -127 127 55 -53
-12 -13 -23 27 34 98 -46 21
127 -67 31 58 19 -27 105 -75
66 84 -57 30 68 25 -42 -17
2 65 -74 -33 46 91 -51 -88
-127 -37 -77 -31 31 63 98 -12
-53 -105 127 -20 32 -70 25 -61
0 -6 127 15 14 0 -76 15
-39 -24 -28 -6 -24 47 96 62
-11 -29 -22 -44 -127 31 -90 32
60 -32 -40 -117 26 -8 33 -112
127 32 -91 1 -39 26 -14 71
50 -11 -10 15 -127 -36 -103 -59
-14 -26 -78 -20 0 -4 53 57
-20 -43 121 -78 47 -23 -3 -66
43 11 77 -106 53 -10 4 22
7 -127 73 -43 -53 24 127 -2
7 -47 7 -38 -9 54 -21 127
51 -64 14 127 -127 25 -107 -25
27 43 -59 -127 -57 35 -2 0
-14 -60 6 -14 14 -61 -33 -127
-14 44 -21 127 -59 -54 18 -29
-87 -45 -57 91 1 -100 37 -91
-63 127 -100 85 127 -20 -76 20
45 32 -1 -64 -101 33 48 -51
-3 47 -74 -82 29 81 4 -105
-35 21 -34 -27 -24 40 -127 -69
-19 39 -86 85 66 32 -29 -127
-32 15 86 -6 95 97 -22 -29

mobilenet_0.25_96/conv_dw_7/depthwise/ReadVariableOp/resource i1 [1, 3, 3, 128]
00000000: f8c2 0ef0 0a81 0fc4 8109 b8fd c901 5ac1
00000010: 6481 dccb 33eb 4027 1630 3ddb 5743 f0e8
00000020: 7fed 9beb 2f0f bd82 e7cb 0e37 fb11 81fa
00000030: 81e2 0f81 047f 91c1 2881 d1ef 1aed 814b
00000040: 113c 211f bfa7 ee66 b781 1181 0118 0e7f
00000050: aa35 d214 817f bcf0 43fa fa41 fe0a dc0f
00000060: b40f f017 f9ae 0a2a 89cb 818d 0aae cbe1
00000070: f7cf 108d c2f1 c133 37b0 f9b4 06f9 0365
00000080: 8107 3cdb 7ff2 1507 37fd aead 7f81 5281
00000090: 330a 7fea d270 21d5 6817 2067 1774 e47f
000000a0: 2c02 c481 e846 e2da d7d5 bab7 717f aa2d
000000b0: ef0a 1eb3 dc2b 1b9b 0398 f1bf e912 d67f
000000c0: 0222 b10c 24e7 f2a2 fbc5 efba 435d 7d60
000000d0: f26e de7f b411 9941 e71e b281 b17f 3ac9
000000e0: 1f9d f315 e9f3 7fc3 14c5 84f0 7f3a c07f
000000f0: 92e0 01bb e3e0 d535 7f51 f8df 8c14 e634
-8 -62 14 -16 10 -127 15 -60
-127 9 -72 -3 -55 1 90 -63
100 -127 -36 -53 51 -21 64 39
22 48 61 -37 87 67 -16 -24
127 -19 -101 -21 47 15 -67 -126
-25 -53 14 55 -5 17 -127 -6
-127 -30 15 -127 4 127 -111 -63
40 -127 -47 -17 26 -19 -127 75
17 60 33 31 -65 -89 -18 102
-73 -127 17 -127 1 24 14 127
-86 53 -46 20 -127 127 -68 -16
67 -6 -6 65 -2 10 -36 15
-76 15 -16 23 -7 -82 10 42
-119 -53 -127 -115 10 -82 -53 -31
-9 -49 16 -115 -62 -15 -63 51
55 -80 -7 -76 6 -7 3 101
-127 7 60 -37 127 -14 21 7
55 -3 -82 -83 127 -127 82 -127
51 10 127 -22 -46 112 33 -43
104 23 32 103 23 116 -28 127
44 2 -60 -127 -24 70 -30 -38
-41 -43 -70 -73 113 127 -86 45
-17 10 30 -77 -36 43 27 -101
3 -104 -15 -65 -23 18 -42 127
2 34 -79 12 36 -25 -14 -94
-5 -59 -17 -70 67 93 125 96
-14 110 -34 127 -76 17 -103 65
-25 30 -78 -127 -79 127 58 -55
31 -99 -13 21 -23 -13 127 -61
20 -59 -124 -16 127 58 -64 127
-110 -32 1 -69 -29 -32 -43 53
127 81 -8 -33 -116 20 -26 52

mobilenet_0.25_96/conv_dw_8/depthwise/ReadVariableOp/resource i1 [1, 3, 3, 128]
00000000: 0581 815c 7f25 5d2e 147f d181 2514 0a39
00000010: e08f db0c cbe6 a59c 3bb9 4c9d 227f c9ad
00000020: 34f4 3c7f 3d81 42d2 367f 9b17 d017 2a27
00000030: 7f8d 48d8 130d fa12 0900 743a 9fb8 52be
00000040: 812f 1de1 2127 9f9f f110 48dc effa c8f9
00000050: 15f7 f6c3 6579 ff25 f0c3 7f81 810a 3881
00000060: fdc6 6e81 d1cb 4ed6 0921 3d08 18eb 7f1b
00000070: c057 ab58 7f34 f6c1 612a 14b0 f3e0 b481
00000080: 7f56 c3c5 d794 6310 2ff7 cdd2 08b3 9c17
00000090: fb91 7fd9 9c1c ee79 a300 4a81 f82d 41ae
000000a0: fba9 0e20 7fee 335d 7fcd 9e6f c1d9 8139
000000b0: c4bd 2bcd 298e f081 f87f 77c1 05c6 d3a7
000000c0: be11 1b42 7f32 660f e9d0 c7fb fe15 bbda
000000d0: 11da d4c2 62ac f97f fea9 1f24 88eb d7d5
000000e0: 1bc5 2fcc 38f9 113a 081f 7f08 eeee 38dc
000000f0: 8159 bf30 5a7f 0f81 03f3 99ca c7d3 58b2
5 -127 -127 92 127 37 93 46
20 127 -47 -127 37 20 10 57
-32 -113 -37 12 -53 -26 -91 -100
59 -71 76 -99 34 127 -55 -83
52 -12 60 127 61 -127 66 -46
54 127 -101 23 -48 23 42 39
127 -115 72 -40 19 13 -6 18
9 0 116 58 -97 -72 82 -66
-127 47 29 -31 33 39 -97 -97
-15 16 72 -36 -17 -6 -56 -7
21 -9 -10 -61 101 121 -1 37
-16 -61 127 -127 -127 10 56 -127
-3 -58 110 -127 -47 -53 78 -42
9 33 61 8 24 -21 127 27
-64 87 -85 88 127 52 -10 -63
97 42 20 -80 -13 -32 -76 -127
127 86 -61 -59 -41 -108 99 16
47 -9 -51 -46 8 -77 -100 23
-5 -111 127 -39 -100 28 -18 121
-93 0 74 -127 -8 45 65 -82
-5 -87 14 32 127 -18 51 93
127 -51 -98 111 -63 -39 -127 57
-60 -67 43 -51 41 -114 -16 -127
-8 127 119 -63 5 -58 -45 -89
-66 17 27 66 127 50 102 15
-23 -48 -57 -5 -2 21 -69 -38
17 -38 -44 -62 98 -84 -7 127
-2 -87 31 36 -120 -21 -41 -43
27 -59 47 -52 56 -7 17 58
8 31 127 8 -18 -18 56 -36
-127 89 -65 48 90 127 15 -127
3 -13 -103 -54 -57 -45 88 -78

mobilenet_0.25_96/conv_dw_9/depthwise/ReadVariableOp/resource i1 [1, 3, 3, 128]
00000000: 403f 4606 cbf4 c1c7 f330 7f3a d308 8104
00000010: 31df 7f7f 1893 f723 1133 47f8 3714 7f3c
00000020: 7f0e dd7f 17c5 f1df 19c8 e02a de22 7f3a
00000030: 1194 7fd9 e67f 3d81 f714 c6c6 451e e72d
00000040: 22c4 e6bf 6184 c2b6 cfca f0f1 1881 29c6
00000050: 14d8 25a7 2b65 c66c 4a29 417f bd29 0cd7
00000060: 09ec 8136 fcf8 0a2d 17f0 9593 2f50 9619
00000070: e786 4d1f e0f3 30c3 f300 007f 407f d37f
00000080: 353c 2e16 babf eede 3b15 557f eac9 dd7f
00000090: ae45 7e31 1513 b825 16c9 7f11 dfbb 495d
000000a0: cee1 6418 81dc 22ea 08ea 2504 2bfe b17f
000000b0: bb81 3496 d059 d95c 3e93 d793 7f17 eacc
000000c0: 1003 d8db 0a53 d87f a648 faf6 1be0 8c25
000000d0: fad1 ff60 f3ed f5bb b7f7 dd22 8139 0e04
000000e0: 1efb 0af5 26d2 7fdb c9af acbb d0f1 61c8
000000f0: 00f7 ef7f e0dd 0bef 3805 e268 2caf bf24
64 63 70 6 -53 -12 -63 -57
-13 48 127 58 -45 8 -127 4
49 -33 127 127 24 -109 -9 35
17 51 71 -8 55 20 127 60
127 14 -35 127 23 -59 -15 -33
25 -56 -32 42 -34 34 127 58
17 -108 127 -39 -26 127 61 -127
-9 20 -58 -58 69 30 -25 45
34 -60 -26 -65 97 -124 -62 -74
-49 -54 -16 -15 24 -127 41 -58
20 -40 37 -89 43 101 -58 108
74 41 65 127 -67 41 12 -41
9 -20 -127 54 -4 -8 10 45
23 -16 -107 -109 47 80 -106 25
-25 -122 77 31 -32 -13 48 -61
-13 0 0 127 64 127 -45 127
53 60 46 22 -70 -65 -18 -34
59 21 85 127 -22 -55 -35 127
-82 69 126 49 21 19 -72 37
22 -55 127 17 -33 -69 73 93
-50 -31 100 24 -127 -36 34 -22
8 -22 37 4 43 -2 -79 127
-69 -127 52 -106 -48 89 -39 92
62 -109 -41 -109 127 23 -22 -52
16 3 -40 -37 10 83 -40 127
-90 72 -6 -10 27 -32 -116 37
-6 -47 -1 96 -13 -19 -11 -69
-73 -9 -35 34 -127 57 14 4
30 -5 10 -11 38 -46 127 -37
-55 -81 -84 -69 -48 -15 97 -56
0 -9 -17 127 -32 -35 11 -17
56 5 -30 104 44 -81 -65 36

mobilenet_0.25_96/conv_preds/Conv2D/ReadVariableOp/resource i1 [4, 1, 1, 256]
00000000: 0ffe c41f 2e27 d2de fddd 1a2a cafa 04fc
00000010: d2eb dbdc d3a0 e3de 2a0c 2fd1 f2fa e627
00000020: 0409 eee4 0001 c6e3 c700 f4d3 fc02 eb0c
00000030: fa10 fa07 025e 39e8 0617 c5e3 e681 e90b
00000040: c906 eef0 34ef 04fb 0a0f f9eb ef09 08ca
00000050: ecea b116 e8df 14ce ffd8 faf9 0dc9 3894
00000060: d7d0 d7ec ee17 90ae eced ec09 e8e7 f8f6
00000070: f50a b7ed 15fa e5d4 10cc f224 1a3f f8e5
00000080: 01f0 cdf4 f607 02f9 acf8 caf5 f2f8 e5f5
00000090: 03f0 dfcf 04fd ebf1 45e7 dc0f b718 0cfe
000000a0: a7d6 fa0f d892 ebe5 ece9 04f5 e8d2 ed0d
000000b0: d5c3 e7e2 e5d5 c3e8 a8f3 36ff f50a d1e4
000000c0: eff5 db08 0b26 f414 dbf5 fa13 fe10 cdcd
000000d0: dbd9 e6f9 e4e7 03d3 3ad1 f700 45ef fd06
000000e0: e101 a7f3 3cd3 aaff 072a b212 e2ff e3bf
000000f0: ebda 1002 f9cf cde4 28f7 e0c9 08e1 fbf1
15 -2 -60 31 46 39 -46 -34
-3 -35 26 42 -54 -6 4 -4
-46 -21 -37 -36 -45 -96 -29 -34
42 12 47 -47 -14 -6 -26 39
4 9 -18 -28 0 1 -58 -29
-57 0 -12 -45 -4 2 -21 12
-6 16 -6 7 2 94 57 -24
6 23 -59 -29 -26 -127 -23 11
-55 6 -18 -16 52 -17 4 -5
10 15 -7 -21 -17 9 8 -54
-20 -22 -79 22 -24 -33 20 -50
-1 -40 -6 -7 13 -55 56 -108
-41 -48 -41 -20 -18 23 -112 -82
-20 -19 -20 9 -24 -25 -8 -10
-11 10 -73 -19 21 -6 -27 -44
16 -52 -14 36 26 63 -8 -27
1 -16 -51 -12 -10 7 2 -7
-84 -8 -54 -11 -14 -8 -27 -11
3 -16 -33 -49 4 -3 -21 -15
69 -25 -36 15 -73 24 12 -2
-89 -42 -6 15 -40 -110 -21 -27
-20 -23 4 -11 -24 -46 -19 13
-43 -61 -25 -30 -27 -43 -61 -24
-88 -13 54 -1 -11 10 -47 -28
-17 -11 -37 8 11 38 -12 20
-37 -11 -6 19 -2 16 -51 -51
-37 -39 -26 -7 -28 -25 3 -45
58 -47 -9 0 69 -17 -3 6
-31 1 -89 -13 60 -45 -86 -1
7 42 -78 18 -30 -1 -29 -65
-21 -38 16 2 -7 -49 -51 -28
40 -9 -32 -55 8 -31 -5 -15

mobilenet_0.25_96/conv_pw_1/Conv2D/ReadVariableOp/resource i1 [16, 1, 1, 8]
00000000: 69f2 81ed 8e4a 2a07 e47f f3c2 af5d 7e26
00000010: 5955 aa2d d03a 7fd7 e5c2 7fb5 71dc 36b1
00000020: 3581 1f00 eccb 886e 1729 937f cc5c c398
00000030: 9f1c 7f40 27d7 48cf d720 0b7f 090c c4d5
00000040: 4bf3 1327 f60c 81ce ba21 30bc 03e0 7fe0
00000050: 7fc8 5fe3 8d1b 05e8 5cd6 b5af 39cc d47f
00000060: a171 8106 b37f 5e88 09ed bc15 d30f 81de
00000070: a5e0 7f0a 25ef 042e 5bc6 3ece 0340 81e5
105 -14 -127 -19 -114 74 42 7
-28 127 -13 -62 -81 93 126 38
89 85 -86 45 -48 58 127 -41
-27 -62 127 -75 113 -36 54 -79
53 -127 31 0 -20 -53 -120 110
23 41 -109 127 -52 92 -61 -104
-97 28 127 64 39 -41 72 -49
-41 32 11 127 9 12 -60 -43
75 -13 19 39 -10 12 -127 -50
-70 33 48 -68 3 -32 127 -32
127 -56 95 -29 -115 27 5 -24
92 -42 -75 -81 57 -52 -44 127
-95 113 -127 6 -77 127 94 -120
9 -19 -68 21 -45 15 -127 -34
-91 -32 127 10 37 -17 4 46
91 -58 62 -50 3 64 -127 -27

mobilenet_0.25_96/conv_pw_10/Conv2D/ReadVariableOp/resource i1 [128, 1, 1, 128]
00000000: ea35 d4d8 0205 ffc7 4110 dd20 32da d3d0
00000010: f0f0 0d31 35d2 09e4 2500 25dd fbd2 0cbf
00000020: e198 1744 1323 dfef dafc 26f9 d715 0df8
00000030: df38 d30a 0d24 0be7 0e12 bd29 fcf1 180a
00000040: 17f5 f90b eaf5 0016 c3cb 0be2 12e5 ede7
00000050: 0a81 e9ff ef2a fb12 dd15 04ff 240d 51e8
00000060: e1f5 b90f 2fe5 2807 06ca 1610 0af5 e203
00000070: d70b e9e1 d0ee dce9 db2d 29f1 fbe8 d9e8
00000080: e9ed 33ee 1921 e503 1b13 23f3 b70b aba8
00000090: facb 2d18 fe1a da01 37e9 fbe2 6b0d 2b98
000000a0: 1e24 e817 0dbb dd5b e9c5 e4f8 f6c2 07c9
000000b0: 0c02 7fd6 f2f2 a5b7 e81b 2bb0 0a72 ae10
000000c0: c9a2 e128 3124 5018 0ba9 f02a 1e37 f0c8
000000d0: 09e3 0fa6 1961 fff4 1737 0e46 1bae ecba
000000e0: f1de 0d24 000c 5608 cdc9 d1ee b4d8 b9c9
000000f0: 0fde fbfe 05e0 2d0c fcf4 caf8 0cbc cf56
-22 53 -44 -40 2 5 -1 -57
65 16 -35 32 50 -38 -45 -48
-16 -16 13 49 53 -46 9 -28
37 0 37 -35 -5 -46 12 -65
-31 -104 23 68 19 35 -33 -17
-38 -4 38 -7 -41 21 13 -8
-33 56 -45 10 13 36 11 -25
14 18 -67 41 -4 -15 24 10
23 -11 -7 11 -22 -11 0 22
-61 -53 11 -30 18 -27 -19 -25
10 -127 -23 -1 -17 42 -5 18
-35 21 4 -1 36 13 81 -24
-31 -11 -71 15 47 -27 40 7
6 -54 22 16 10 -11 -30 3
-41 11 -23 -31 -48 -18 -36 -23
-37 45 41 -15 -5 -24 -39 -24
-23 -19 51 -18 25 33 -27 3
27 19 35 -13 -73 11 -85 -88
-6 -53 45 24 -2 26 -38 1
55 -23 -5 -30 107 13 43 -104
30 36 -24 23 13 -69 -35 91
-23 -59 -28 -8 -10 -62 7 -55
12 2 127 -42 -14 -14 -91 -73
-24 27 43 -80 10 114 -82 16
-55 -94 -31 40 49 36 80 24
11 -87 -16 42 30 55 -16 -56
9 -29 15 -90 25 97 -1 -12
23 55 14 70 27 -82 -20 -70
-15 -34 13 36 0 12 86 8
-51 -55 -47 -18 -76 -40 -71 -55
15 -34 -5 -2 5 -32 45 12
-4 -12 -54 -8 12 -68 -49 86

mobilenet_0.25_96/conv_pw_11/Conv2D/ReadVariableOp/resource i1 [128, 1, 1, 128]
00000000: 2c69 f50f 81b5 9510 d90d 01f5 e8c3 112f
00000010: 31c3 fcfe d200 f025 3162 d516 0527 c0ff
00000020: 48d3 1c31 2419 2925 f80a 0812 0607 dfe2
00000030: 30c5 b0cf e7fd e8ed 3539 ec26 22f2 e537
00000040: 010e f7ed 1725 7005 b1fb 8410 08dd 3dfb
00000050: 62ed c522 02e3 ec26 0201 ecf7 ef28 f59f
00000060: ea32 02f1 0011 00f3 1b0c f817 9fea 01e7
00000070: 262b bba8 3fea f42a 3f07 ca12 3ef3 54eb
00000080: a233 0e17 51ec ead7 0bfd 184e e610 ea5b
00000090: 280c b5ae f9e8 ea1e 10f3 1b12 faf8 c4d9
000000a0: 1f02 f814 e0bc 21bc eced 0921 c30a 6b7f
000000b0: d57e f18a e1f6 2d1f 2df2 ed37 2a00 25de
000000c0: 2d12 20fd 26fd 12dd f8f6 49e9 ea50 1f1a
000000d0: 180f e8ef 24ed e4dc fe06 3a00 e32a 0f35
000000e0: 3555 0de6 fe19 d630 d508 18c8 f43b dc19
000000f0: 36e9 e8ec e929 9426 0bd4 ba03 f2df 5fe2
44 105 -11 15 -127 -75 -107 16
-39 13 1 -11 -24 -61 17 47
49 -61 -4 -2 -46 0 -16 37
49 98 -43 22 5 39 -64 -1
72 -45 28 49 36 25 41 37
-8 10 8 18 6 7 -33 -30
48 -59 -80 -49 -25 -3 -24 -19
53 57 -20 38 34 -14 -27 55
1 14 -9 -19 23 37 112 5
-79 -5 -124 16 8 -35 61 -5
98 -19 -59 34 2 -29 -20 38
2 1 -20 -9 -17 40 -11 -97
-22 50 2 -15 0 17 0 -13
27 12 -8 23 -97 -22 1 -25
38 43 -69 -88 63 -22 -12 42
63 7 -54 18 62 -13 84 -21
-94 51 14 23 81 -20 -22 -41
11 -3 24 78 -26 16 -22 91
40 12 -75 -82 -7 -24 -22 30
16 -13 27 18 -6 -8 -60 -39
31 2 -8 20 -32 -68 33 -68
-20 -19 9 33 -61 10 107 127
-43 126 -15 -118 -31 -10 45 31
45 -14 -19 55 42 0 37 -34
45 18 32 -3 38 -3 18 -35
-8 -10 73 -23 -22 80 31 26
24 15 -24 -17 36 -19 -28 -36
-2 6 58 0 -29 42 15 53
53 85 13 -26 -2 25 -42 48
-43 8 24 -56 -12 59 -36 25
54 -23 -24 -20 -23 41 -108 38
11 -44 -70 3 -14 -33 95 -30

mobilenet_0.25_96/conv_pw_12/Conv2D/ReadVariableOp/resource i1 [256, 1, 1, 128]
00000000: da24 d20c 10b4 0cbd f0ff da5c 1419 3e07
00000010: 2303 f33d f6fc d0e2 f9e0 0acc fb95 18fc
00000020: 21eb d249 071d daba ed51 a5b0 361f bd3d
00000030: 0ff0 c2f6 1281 0507 d714 213e 03bb 3ff1
00000040: b1f4 6a26 1cda 281e 0c8b 0e16 01b9 1537
00000050: ea3a fdf6 fdf3 cbaa c249 eaf7 39ed 97e0
00000060: 30be 49cc 26b1 e2bf fd4a e1ed 2d31 efd8
00000070: dffa e102 fdf0 d9cf 1bcc dfe0 c2e1 40e2
00000080: 1fee cb09 1dec f115 d51f 0ef6 1e0b 0cc8
00000090: c753 280d fb27 ef0a 6455 9326 dec8 4812
000000a0: ec5e aaf7 a424 4623 e8f8 1ab6 20b2 30a7
000000b0: df14 26cf adbb e1f2 e381 ab19 25e0 08f2
000000c0: 0727 5ddd f8ea 38d6 ffd7 8afc e905 26d5
000000d0: b0e1 15dc f01e 2101 edae 17f8 c3ff e3d2
000000e0: a87a eac8 d420 0d34 fcf1 1de7 d48a 2104
000000f0: d5e6 b124 06ea 55ae e8c5 fafe 3de7 e3f8
-38 36 -46 12 16 -76 12 -67
-16 -1 -38 92 20 25 62 7
35 3 -13 61 -10 -4 -48 -30
-7 -32 10 -52 -5 -107 24 -4
33 -21 -46 73 7 29 -38 -70
-19 81 -91 -80 54 31 -67 61
15 -16 -62 -10 18 -127 5 7
-41 20 33 62 3 -69 63 -15
-79 -12 106 38 28 -38 40 30
12 -117 14 22 1 -71 21 55
-22 58 -3 -10 -3 -13 -53 -86
-62 73 -22 -9 57 -19 -105 -32
48 -66 73 -52 38 -79 -30 -65
-3 74 -31 -19 45 49 -17 -40
-33 -6 -31 2 -3 -16 -39 -49
27 -52 -33 -32 -62 -31 64 -30
31 -18 -53 9 29 -20 -15 21
-43 31 14 -10 30 11 12 -56
-57 83 40 13 -5 39 -17 10
100 85 -109 38 -34 -56 72 18
-20 94 -86 -9 -92 36 70 35
-24 -8 26 -74 32 -78 48 -89
-33 20 38 -49 -83 -69 -31 -14
-29 -127 -85 25 37 -32 8 -14
7 39 93 -35 -8 -22 56 -42
-1 -41 -118 -4 -23 5 38 -43
-80 -31 21 -36 -16 30 33 1
-19 -82 23 -8 -61 -1 -29 -46
-88 122 -22 -56 -44 32 13 52
-4 -15 29 -25 -44 -118 33 4
-43 -26 -79 36 6 -22 85 -82
-24 -59 -6 -2 61 -25 -29 -8

mobilenet_0.25_96/conv_pw_13/Conv2D/ReadVariableOp/resource i1 [256, 1, 1, 256]
00000000: f327 ecfe f6f0 f9d9 dd1a dcf4 0b31 d422
00000010: de16 01f5 212d eb29 0df4 0afd d6d8 11e4
00000020: 09ec dae0 f29d 0508 2129 0cc1 05fb 0942
00000030: ebff b127 e90a 16ff 3004 02e8 eaea fdf7
00000040: 4135 10e4 04dc 00e2 16f5 2a30 eef1 0728
00000050: 2ff1 0015 08dc e054 c5dc fd04 e0bf e107
00000060: f82b c446 fcf4 3606 ecfa 2af0 1bf0 3509
00000070: 1ec0 168f f2ef fcf1 00fe e5ee f2e3 fe11
00000080: f1da 171b 34c0 00ef deb8 d9fe d615 33f4
00000090: 1c07 f90c 09bf 02cc f9fc d116 eadb 0e27
000000a0: e604 0119 f612 9edc fcc2 1115 0dce 240a
000000b0: d749 1dfe 074a dd1f e40f 0809 f708 0a1c
000000c0: 101d 04e5 e006 f317 fafa 1541 2e09 fa0e
000000d0: 01f9 dc18 20e0 1bdd f9d6 45db e0b5 69f7
000000e0: ff00 07d5 f111 cef8 f301 1be7 e522 0fc1
000000f0: 04f5 33fa c42f 7fe8 f5f3 080c 19f6 aad5
-13 39 -20 -2 -10 -16 -7 -39
-35 26 -36 -12 11 49 -44 34
-34 22 1 -11 33 45 -21 41
13 -12 10 -3 -42 -40 17 -28
9 -20 -38 -32 -14 -99 5 8
33 41 12 -63 5 -5 9 66
-21 -1 -79 39 -23 10 22 -1
48 4 2 -24 -22 -22 -3 -9
65 53 16 -28 4 -36 0 -30
22 -11 42 48 -18 -15 7 40
47 -15 0 21 8 -36 -32 84
-59 -36 -3 4 -32 -65 -31 7
-8 43 -60 70 -4 -12 54 6
-20 -6 42 -16 27 -16 53 9
30 -64 22 -113 -14 -17 -4 -15
0 -2 -27 -18 -14 -29 -2 17
-15 -38 23 27 52 -64 0 -17
-34 -72 -39 -2 -42 21 51 -12
28 7 -7 12 9 -65 2 -52
-7 -4 -47 22 -22 -37 14 39
-26 4 1 25 -10 18 -98 -36
-4 -62 17 21 13 -50 36 10
-41 73 29 -2 7 74 -35 31
-28 15 8 9 -9 8 10 28
16 29 4 -27 -32 6 -13 23
-6 -6 21 65 46 9 -6 14
1 -7 -36 24 32 -32 27 -35
-7 -42 69 -37 -32 -75 105 -9
-1 0 7 -43 -15 17 -50 -8
-13 1 27 -25 -27 34 15 -63
4 -11 51 -6 -60 47 127 -24
-11 -13 8 12 25 -10 -86 -43

mobilenet_0.25_96/conv_pw_2/Conv2D/ReadVariableOp/resource i1 [32, 1, 1, 16]
00000000: df40 e60f d7e2 df04 3423 f5d7 1fbb 7f23
00000010: 1787 6d0d 872f 797f bf1e e6b4 f03b 3e22
00000020: 43f4 b33c cedb 1081 2adb 9f30 d572 7f3d
00000030: 060a 3523 782a ef19 e535 b87f f449 e111
00000040: 7f91 9da7 d94a 96cb cea4 48ab b255 9e72
00000050: d93d 1504 b626 1c7f bdcb e528 53d9 4be8
00000060: 863f 242c d62d 2c09 2d2a c9d7 370a e97f
00000070: f046 f670 ec81 03fc e40e 38c7 eaec 2a79
00000080: efc9 b1ce dbc6 0e5f 1467 18ce fd81 ca05
00000090: dccc 1038 d007 8ca5 7ff5 07fd 23d8 25c0
000000a0: a4d5 ddfe ef16 5cdf 6781 f916 3e3f feee
000000b0: 5545 0f7a 077f f6c9 48b4 24d2 d6e4 994c
000000c0: d1cd c8b6 c7e7 0402 ea6d 1a81 e8a9 b5e2
000000d0: 9994 349e e32b 8ef6 e6f0 d181 df20 415c
000000e0: fe4a e07f 42ca 538b a273 68cc 838e 31a0
000000f0: 827f 2da8 de0c 3c9e a301 701d ccd8 cbc7
-33 64 -26 15 -41 -30 -33 4
52 35 -11 -41 31 -69 127 35
23 -121 109 13 -121 47 121 127
-65 30 -26 -76 -16 59 62 34
67 -12 -77 60 -50 -37 16 -127
42 -37 -97 48 -43 114 127 61
6 10 53 35 120 42 -17 25
-27 53 -72 127 -12 73 -31 17
127 -111 -99 -89 -39 74 -106 -53
-50 -92 72 -85 -78 85 -98 114
-39 61 21 4 -74 38 28 127
-67 -53 -27 40 83 -39 75 -24
-122 63 36 44 -42 45 44 9
45 42 -55 -41 55 10 -23 127
-16 70 -10 112 -20 -127 3 -4
-28 14 56 -57 -22 -20 42 121
-17 -55 -79 -50 -37 -58 14 95
20 103 24 -50 -3 -127 -54 5
-36 -52 16 56 -48 7 -116 -91
127 -11 7 -3 35 -40 37 -64
-92 -43 -35 -2 -17 22 92 -33
103 -127 -7 22 62 63 -2 -18
85 69 15 122 7 127 -10 -55
72 -76 36 -46 -42 -28 -103 76
-47 -51 -56 -74 -57 -25 4 2
-22 109 26 -127 -24 -87 -75 -30
-103 -108 52 -98 -29 43 -114 -10
-26 -16 -47 -127 -33 32 65 92
-2 74 -32 127 66 -54 83 -117
-94 115 104 -52 -125 -114 49 -96
-126 127 45 -88 -34 12 60 -98
-93 1 112 29 -52 -40 -53 -57

mobilenet_0.25_96/conv_pw_3/Conv2D/ReadVariableOp/resource i1 [32, 1, 1, 32]
00000000: 183f 8cfe 6c34 c858 5d26 06ed 16c4 2de0
00000010: 1911 caeb f5ff 98f8 f20b 442e d781 cf52
00000020: d3e7 4f74 9306 ed7f dd2b 35f3 ad18 cc3f
00000030: 30f1 59bc 5e1f f8dc f542 bacb 06ec 58ee
00000040: c235 0242 f000 38ab d2f4 072d d5b7 2d24
00000050: 0e46 11fe f5f7 d657 d081 28d5 1b3b 4fb9
00000060: afee 2636 010c 3804 f5f9 322a c020 1aeb
00000070: 4e5b e55f 0cec 11f3 48cd 3410 ecfd 7f04
00000080: d256 1412 1812 f4e5 dae4 9afe 009a d73e
00000090: 5821 7b08 9f7f 786b 6304 3ff2 cbf6 514e
000000a0: dff9 4402 c8cf 341a d40d b6e5 02ef 232b
000000b0: 0b1e e7e2 e718 9a2a fd2d 5d30 c4d2 1c81
000000c0: c6bd e081 24af acf6 17b9 8352 b6b0 4504
000000d0: 09d6 2185 0000 654a b8d2 f128 2afd c097
000000e0: 0e7f 54bc 034b ff57 4059 9130 f955 93e0
000000f0: 0103 e91d 0def 45e4 581c b1fd 1531 5cdd
24 63 -116 -2 108 52 -56 88
93 38 6 -19 22 -60 45 -32
25 17 -54 -21 -11 -1 -104 -8
-14 11 68 46 -41 -127 -49 82
-45 -25 79 116 -109 6 -19 127
-35 43 53 -13 -83 24 -52 63
48 -15 89 -68 94 31 -8 -36
-11 66 -70 -53 6 -20 88 -18
-62 53 2 66 -16 0 56 -85
-46 -12 7 45 -43 -73 45 36
14 70 17 -2 -11 -9 -42 87
-48 -127 40 -43 27 59 79 -71
-81 -18 38 54 1 12 56 4
-11 -7 50 42 -64 32 26 -21
78 91 -27 95 12 -20 17 -13
72 -51 52 16 -20 -3 127 4
-46 86 20 18 24 18 -12 -27
-38 -28 -102 -2 0 -102 -41 62
88 33 123 8 -97 127 120 107
99 4 63 -14 -53 -10 81 78
-33 -7 68 2 -56 -49 52 26
-44 13 -74 -27 2 -17 35 43
11 30 -25 -30 -25 24 -102 42
-3 45 93 48 -60 -46 28 -127
-58 -67 -32 -127 36 -81 -84 -10
23 -71 -125 82 -74 -80 69 4
9 -42 33 -123 0 0 101 74
-72 -46 -15 40 42 -3 -64 -105
14 127 84 -68 3 75 -1 87
64 89 -111 48 -7 85 -109 -32
1 3 -23 29 13 -17 69 -28
88 28 -79 -3 21 49 92 -35

mobilenet_0.25_96/conv_pw_4/Conv2D/ReadVariableOp/resource i1 [64, 1, 1, 32]
00000000: b8ef 2dc6 0622 04eb d0fd fbe3 e6d4 eaeb
00000010: e8f1 f5ca 81bc dc11 cf38 a8f4 b829 dfc7
00000020: ce22 5f1a 4500 2243 ec14 3157 f320 5916
00000030: 2e28 81f3 49f5 d066 b900 0ee4 ddfe 23a7
00000040: f612 d035 a5c3 e5c3 aef5 533d 1b9d d7eb
00000050: 607a 3519 ae19 b888 44e3 2b7f 01d8 11a1
00000060: cbfa 25ec 23ea 2728 4a07 35e5 2914 e2aa
00000070: 5822 5035 2ef8 257f d8ea bb27 2c10 df46
00000080: 2328 32e0 6bb5 f3c6 33e6 9fba b431 2420
00000090: f9ef 90ca 05c6 81e4 069c b338 cea5 0bea
000000a0: 9704 e781 0ede 63ed e8f6 ddcd e4e5 0dac
000000b0: 48e9 f7d1 0e16 f549 0ced c7a4 00ff 49d9
000000c0: d03a f4e6 cf95 7fe5 8dea 59fd 0ee5 b421
000000d0: d72b 2bde f6e6 3d49 afe4 1315 d25a 23e1
000000e0: ba30 810d 45d4 15ac 4045 21b9 318a 2dbb
000000f0: e408 45b1 d003 1ef6 09ab 0011 5abd 9e2d
-72 -17 45 -58 6 34 4 -21
-48 -3 -5 -29 -26 -44 -22 -21
-24 -15 -11 -54 -127 -68 -36 17
-49 56 -88 -12 -72 41 -33 -57
-50 34 95 26 69 0 34 67
-20 20 49 87 -13 32 89 22
46 40 -127 -13 73 -11 -48 102
-71 0 14 -28 -35 -2 35 -89
-10 18 -48 53 -91 -61 -27 -61
-82 -11 83 61 27 -99 -41 -21
96 122 53 25 -82 25 -72 -120
68 -29 43 127 1 -40 17 -95
-53 -6 37 -20 35 -22 39 40
74 7 53 -27 41 20 -30 -86
88 34 80 53 46 -8 37 127
-40 -22 -69 39 44 16 -33 70
35 40 50 -32 107 -75 -13 -58
51 -26 -97 -70 -76 49 36 32
-7 -17 -112 -54 5 -58 -127 -28
6 -100 -77 56 -50 -91 11 -22
-105 4 -25 -127 14 -34 99 -19
-24 -10 -35 -51 -28 -27 13 -84
72 -23 -9 -47 14 22 -11 73
12 -19 -57 -92 0 -1 73 -39
-48 58 -12 -26 -49 -107 127 -27
-115 -22 89 -3 14 -27 -76 33
-41 43 43 -34 -10 -26 61 73
-81 -28 19 21 -46 90 35 -31
-70 48 -127 13 69 -44 21 -84
64 69 33 -71 49 -118 45 -69
-28 8 69 -79 -48 3 30 -10
9 -85 0 17 90 -67 -98 45

mobilenet_0.25_96/conv_pw_5/Conv2D/ReadVariableOp/resource i1 [64, 1, 1, 64]
00000000: 5db7 b204 df15 4658 e90f 19bc ecb0 dfe9
00000010: 0306 2bf3 6acb d6e6 33d6 33e8 08df dfbc
00000020: 2a4c 01ed 1b1a 12f0 350e 3747 342e e7e1
00000030: b714 b723 e1fa a281 53f9 ca1e 9abf cc00
00000040: d847 aafb ded9 f905 063f ecfe cec3 1c15
00000050: 2c3c 2ae9 d0fe f2e6 0a2f 254b 1212 0ec2
00000060: cdf6 074b 2cb0 c90c e52f 24e9 c7d5 3fae
00000070: 26e7 934f 4e1b 282a 14ec 34d0 2881 d6fd
00000080: 1715 3415 0dec d6e0 2806 0681 b3fe 5ed4
00000090: 3f35 f1f6 cfd5 180b 4209 3452 c094 fc9c
000000a0: e4f6 33f2 19e7 4308 e230 fc2b e3ef eff0
000000b0: 1bb8 f111 1c3a d24b dc06 d9e0 140f 3100
000000c0: ba6f 2910 1d65 4213 1a38 8153 bd14 3dcb
000000d0: dbc7 ae17 ebbe 29e2 f529 1df8 bdf3 eb04
000000e0: 08ca 10da e525 58c6 f153 d603 e13b fbdc
000000f0: 5ba9 d92b 0bf2 3340 08c6 170c 132b d7e6
93 -73 -78 4 -33 21 70 88
-23 15 25 -68 -20 -80 -33 -23
3 6 43 -13 106 -53 -42 -26
51 -42 51 -24 8 -33 -33 -68
42 76 1 -19 27 26 18 -16
53 14 55 71 52 46 -25 -31
-73 20 -73 35 -31 -6 -94 -127
83 -7 -54 30 -102 -65 -52 0
-40 71 -86 -5 -34 -39 -7 5
6 63 -20 -2 -50 -61 28 21
44 60 42 -23 -48 -2 -14 -26
10 47 37 75 18 18 14 -62
-51 -10 7 75 44 -80 -55 12
-27 47 36 -23 -57 -43 63 -82
38 -25 -109 79 78 27 40 42
20 -20 52 -48 40 -127 -42 -3
23 21 52 21 13 -20 -42 -32
40 6 6 -127 -77 -2 94 -44
63 53 -15 -10 -49 -43 24 11
66 9 52 82 -64 -108 -4 -100
-28 -10 51 -14 25 -25 67 8
-30 48 -4 43 -29 -17 -17 -16
27 -72 -15 17 28 58 -46 75
-36 6 -39 -32 20 15 49 0
-70 111 41 16 29 101 66 19
26 56 -127 83 -67 20 61 -53
-37 -57 -82 23 -21 -66 41 -30
-11 41 29 -8 -67 -13 -21 4
8 -54 16 -38 -27 37 88 -58
-15 83 -42 3 -31 59 -5 -36
91 -87 -39 43 11 -14 51 64
8 -58 23 12 19 43 -41 -26

mobilenet_0.25_96/conv_pw_6/Conv2D/ReadVariableOp/resource i1 [128, 1, 1, 64]
00000000: 4a04 0ce7 0626 b319 2578 fa07 2819 fd20
00000010: d0fc 1ff6 111e 3726 faeb 02f5 ed81 c811
00000020: aabd 1ced 1ed8 ff31 d711 2129 14dd 360f
00000030: e004 f709 0a16 ceca ec22 e2e2 ed0e e70d
00000040: 2bd0 10e4 35db f23d 16a7 cff9 0cc4 ffdd
00000050: 08f5 67cc cd1d d4f4 76b7 23d6 e1b9 a908
00000060: fd1c 4b0a fbcf 08eb e92a 95e9 13e2 ece2
00000070: e4e3 299e 01e2 d9e7 f0d2 e608 15d4 1b81
00000080: 0e0b 0fe0 4303 dae0 242a 2220 0e14 f4cd
00000090: 18fb 3801 0d85 3930 20d7 36bb 3de2 992b
000000a0: fa32 3515 3f7f cde6 f61f 520c 13b1 03f2
000000b0: 4bd2 da50 dd1b e217 3052 1a71 cef2 1a74
000000c0: 3823 c917 dc2e 12e3 d10f 3e03 fb3d 612a
000000d0: 1909 a1c2 f5fe 1ee6 0301 4320 24f7 1841
000000e0: dbe6 e727 be35 e37f 1543 31de b7c9 1923
000000f0: ede3 b3aa b7cc 1ae6 f904 1ff7 00f6 e0c5
74 4 12 -25 6 38 -77 25
37 120 -6 7 40 25 -3 32
-48 -4 31 -10 17 30 55 38
-6 -21 2 -11 -19 -127 -56 17
-86 -67 28 -19 30 -40 -1 49
-41 17 33 41 20 -35 54 15
-32 4 -9 9 10 22 -50 -54
-20 34 -30 -30 -19 14 -25 13
43 -48 16 -28 53 -37 -14 61
22 -89 -49 -7 12 -60 -1 -35
8 -11 103 -52 -51 29 -44 -12
118 -73 35 -42 -31 -71 -87 8
-3 28 75 10 -5 -49 8 -21
-23 42 -107 -23 19 -30 -20 -30
-28 -29 41 -98 1 -30 -39 -25
-16 -46 -26 8 21 -44 27 -127
14 11 15 -32 67 3 -38 -32
36 42 34 32 14 20 -12 -51
24 -5 56 1 13 -123 57 48
32 -41 54 -69 61 -30 -103 43
-6 50 53 21 63 127 -51 -26
-10 31 82 12 19 -79 3 -14
75 -46 -38 80 -35 27 -30 23
48 82 26 113 -50 -14 26 116
56 35 -55 23 -36 46 18 -29
-47 15 62 3 -5 61 97 42
25 9 -95 -62 -11 -2 30 -26
3 1 67 32 36 -9 24 65
-37 -26 -25 39 -66 53 -29 127
21 67 49 -34 -73 -55 25 35
-19 -29 -77 -86 -73 -52 26 -26
-7 4 31 -9 0 -10 -32 -59

mobilenet_0.25_96/conv_pw_7/Conv2D/ReadVariableOp/resource i1 [128, 1, 1, 128]
00000000: fefa f915 011b cc1b dbee 0f0b d5c4 02e4
00000010: 22e3 9cae 0571 ecf8 3ffa 1f1d 2e81 c749
00000020: 06ce f629 ecde ffc5 cd07 15f4 14a5 35f9
00000030: 2528 03fe cbe4 d2d7 4113 2723 d504 08fb
00000040: 2605 100b b5d5 3ce2 dfc3 0a3a e12e fa2d
00000050: 5ae9 2309 d7e2 e6e6 e015 ca11 182a 18c7
00000060: 7fc8 01d7 be00 fc01 d4bf 3c1b f6ed f5da
00000070: 1216 0d2a 1ae1 90d8 cf1d eadd d8e7 e5d3
00000080: 02e4 f514 0bfe edfc fc11 0f82 1261 3940
00000090: 10df f8a3 ecb8 f89a 467c f5bd 326b ba2b
000000a0: d5f7 04df 7f35 0510 1156 d82a ad09 f4b7
000000b0: e50e 4411 c5b4 02f1 5be3 eee2 5324 3d1f
000000c0: eed4 e32d 3d16 5a33 2439 ea1e eeed e096
000000d0: 34ca 0a21 3703 0319 19e0 c621 a4fd 0704
000000e0: d8e1 c157 5d11 90d7 9708 2fa7 be70 49da
000000f0: 39de e195 a5f6 331a 0bc7 0bfb 51df 4838
-2 -6 -7 21 1 27 -52 27
-37 -18 15 11 -43 -60 2 -28
34 -29 -100 -82 5 113 -20 -8
63 -6 31 29 46 -127 -57 73
6 -50 -10 41 -20 -34 -1 -59
-51 7 21 -12 20 -91 53 -7
37 40 3 -2 -53 -28 -46 -41
65 19 39 35 -43 4 8 -5
38 5 16 11 -75 -43 60 -30
-33 -61 10 58 -31 46 -6 45
90 -23 35 9 -41 -30 -26 -26
-32 21 -54 17 24 42 24 -57
127 -56 1 -41 -66 0 -4 1
-44 -65 60 27 -10 -19 -11 -38
18 22 13 42 26 -31 -112 -40
-49 29 -22 -35 -40 -25 -27 -45
2 -28 -11 20 11 -2 -19 -4
-4 17 15 -126 18 97 57 64
16 -33 -8 -93 -20 -72 -8 -102
70 124 -11 -67 50 107 -70 43
-43 -9 4 -33 127 53 5 16
17 86 -40 42 -83 9 -12 -73
-27 14 68 17 -59 -76 2 -15
91 -29 -18 -30 83 36 61 31
-18 -44 -29 45 61 22 90 51
36 57 -22 30 -18 -19 -32 -106
52 -54 10 33 55 3 3 25
25 -32 -58 33 -92 -3 7 4
-40 -31 -63 87 93 17 -112 -41
-105 8 47 -89 -66 112 73 -38
57 -34 -31 -107 -91 -10 51 26
11 -57 11 -5 81 -33 72 56

mobilenet_0.25_96/conv_pw_8/Conv2D/ReadVariableOp/resource i1 [128, 1, 1, 128]
00000000: 22e9 17c9 ed43 2b04 dc05 a919 cb0f 53d9
00000010: e20f 013b 1cdc 1f3d 22f5 b4ce 0e2f fef9
00000020: 221d fafe 0ac3 04e5 da28 f3ee cf31 281d
00000030: 0dc7 a94f 3b01 02cc f2b6 db20 33cc eb95
00000040: 00d8 0624 1fd4 193f c7f6 cf6b 36e0 56ee
00000050: 00de 4d1a ff6b f722 d6fd c8c7 a1ff 02e8
00000060: 05ca dd54 def8 b2e5 4709 dd1b 2fe9 ed4e
00000070: 4bf9 7fdc 24e8 b548 dac9 1b3e ef25 0322
00000080: 2d26 26fd db0f 1021 f0f5 f9e5 0b22 040c
00000090: 0508 07ef cec7 2626 ce20 0c0c 1ec2 39d5
000000a0: e400 7fe5 4f1b c5ca f31d 1872 2311 20f6
000000b0: dbfa 1a1e c80a 0c08 fc0d 1a27 e2db fb37
000000c0: cb3a 0d1b f960 dd0f fc0d 3fd9 fffa f82b
000000d0: 3534 cec7 1fba 06dc e1f0 f10b 3f29 3104
000000e0: 0ed9 edfb 0f37 0ebf 3402 32d3 1dd9 fded
000000f0: 0e09 c002 0964 eef4 e312 df25 07ee c213
34 -23 23 -55 -19 67 43 4
-36 5 -87 25 -53 15 83 -39
-30 15 1 59 28 -36 31 61
34 -11 -76 -50 14 47 -2 -7
34 29 -6 -2 10 -61 4 -27
-38 40 -13 -18 -49 49 40 29
13 -57 -87 79 59 1 2 -52
-14 -74 -37 32 51 -52 -21 -107
0 -40 6 36 31 -44 25 63
-57 -10 -49 107 54 -32 86 -18
0 -34 77 26 -1 107 -9 34
-42 -3 -56 -57 -95 -1 2 -24
5 -54 -35 84 -34 -8 -78 -27
71 9 -35 27 47 -23 -19 78
75 -7 127 -36 36 -24 -75 72
-38 -55 27 62 -17 37 3 34
45 38 38 -3 -37 15 16 33
-16 -11 -7 -27 11 34 4 12
5 8 7 -17 -50 -57 38 38
-50 32 12 12 30 -62 57 -43
-28 0 127 -27 79 27 -59 -54
-13 29 24 114 35 17 32 -10
-37 -6 26 30 -56 10 12 8
-4 13 26 39 -30 -37 -5 55
-53 58 13 27 -7 96 -35 15
-4 13 63 -39 -1 -6 -8 43
53 52 -50 -57 31 -70 6 -36
-31 -16 -15 11 63 41 49 4
14 -39 -19 -5 15 55 14 -65
52 2 50 -45 29 -39 -3 -19
14 9 -64 2 9 100 -18 -12
-29 18 -33 37 7 -18 -62 19

mobilenet_0.25_96/conv_pw_9/Conv2D/ReadVariableOp/resource i1 [128, 1, 1, 128]
00000000: e428 0e1f e7fe f1fe ed26 adfe b9f7 2b15
00000010: 09ef ff10 e50f d830 1a24 01ca f416 c73e
00000020: f549 17ea f413 cf21 da3c b8b3 09ce f9d6
00000030: f427 d409 1b2f de10 1033 fef3 e621 faff
00000040: ecbd 21d6 1f02 163b cab2 e107 ec37 f50c
00000050: 09ac fcf4 2020 f2ec 42d4 3935 0feb cce3
00000060: 1b05 0cf8 fd04 0a09 0afd 19c8 e829 39ee
00000070: b4e6 4a0a 1201 e7e5 32db 81d4 00d2 2318
00000080: c2f0 f318 53ef e6f0 1040 06cf 150d 0e35
00000090: 39fe 09e8 2e1b 06d1 d93b 5a12 0f27 cb50
000000a0: 1845 71c9 31f8 81e9 dc10 50f7 0fed c0f3
000000b0: c40c 323b de49 dd3f 0729 4ae5 0d1c d010
000000c0: 3ec4 4b22 3d56 f8f4 180a 11eb d1c3 e9ce
000000d0: 17e6 2f24 0905 ee4e 27fc 0b1b de52 c3f2
000000e0: 070b d9ee d305 6f0d fded 1ebc cef2 0b11
000000f0: 4af5 c824 3a4f 1b99 310c f0da d0ab 22f1
-28 40 14 31 -25 -2 -15 -2
-19 38 -83 -2 -71 -9 43 21
9 -17 -1 16 -27 15 -40 48
26 36 1 -54 -12 22 -57 62
-11 73 23 -22 -12 19 -49 33
-38 60 -72 -77 9 -50 -7 -42
-12 39 -44 9 27 47 -34 16
16 51 -2 -13 -26 33 -6 -1
-20 -67 33 -42 31 2 22 59
-54 -78 -31 7 -20 55 -11 12
9 -84 -4 -12 32 32 -14 -20
66 -44 57 53 15 -21 -52 -29
27 5 12 -8 -3 4 10 9
10 -3 25 -56 -24 41 57 -18
-76 -26 74 10 18 1 -25 -27
50 -37 -127 -44 0 -46 35 24
-62 -16 -13 24 83 -17 -26 -16
16 64 6 -49 21 13 14 53
57 -2 9 -24 46 27 6 -47
-39 59 90 18 15 39 -53 80
24 69 113 -55 49 -8 -127 -23
-36 16 80 -9 15 -19 -64 -13
-60 12 50 59 -34 73 -35 63
7 41 74 -27 13 28 -48 16
62 -60 75 34 61 86 -8 -12
24 10 17 -21 -47 -61 -23 -50
23 -26 47 36 9 5 -18 78
39 -4 11 27 -34 82 -61 -14
7 11 -39 -18 -45 5 111 13
-3 -19 30 -68 -50 -14 11 17
74 -11 -56 36 58 79 27 -103
49 12 -16 -38 -48 -85 34 -15
